Model: "sequential"
_________________________________________________________________
Layer (type)                 Output Shape              Param #   
=================================================================
conv2d (Conv2D)              (None, 1236, 896, 16)     1216      
_________________________________________________________________
max_pooling2d (MaxPooling2D) (None, 618, 448, 16)      0         
_________________________________________________________________
conv2d_1 (Conv2D)            (None, 614, 444, 16)      6416      
_________________________________________________________________
max_pooling2d_1 (MaxPooling2 (None, 307, 222, 16)      0         
_________________________________________________________________
conv2d_2 (Conv2D)            (None, 305, 220, 16)      2320      
_________________________________________________________________
flatten (Flatten)            (None, 1073600)           0         
_________________________________________________________________
dense (Dense)                (None, 64)                68710464  
_________________________________________________________________
dense_1 (Dense)              (None, 1)                 65        
=================================================================
Total params: 68,720,481
Trainable params: 68,720,481
Non-trainable params: 0
_________________________________________________________________
Final: {'loss': 0.06483545624896099, 'mse': 0.064153336}Model: "sequential"
_________________________________________________________________
Layer (type)                 Output Shape              Param #   
=================================================================
conv2d (Conv2D)              (None, 1236, 896, 16)     1216      
_________________________________________________________________
max_pooling2d (MaxPooling2D) (None, 618, 448, 16)      0         
_________________________________________________________________
conv2d_1 (Conv2D)            (None, 614, 444, 16)      6416      
_________________________________________________________________
max_pooling2d_1 (MaxPooling2 (None, 307, 222, 16)      0         
_________________________________________________________________
conv2d_2 (Conv2D)            (None, 305, 220, 16)      2320      
_________________________________________________________________
flatten (Flatten)            (None, 1073600)           0         
_________________________________________________________________
dense (Dense)                (None, 64)                68710464  
_________________________________________________________________
dense_1 (Dense)              (None, 1)                 65        
=================================================================
Total params: 68,720,481
Trainable params: 68,720,481
Non-trainable params: 0
_________________________________________________________________
Final: {'loss': 4.1535946193494295, 'mse': 4.177403}